kerr_vae.pth (torch, 104185 bytes, 40 tensors)

encoder_net.0.weight f4 [128, 4]
000000 9b bb b7 3e 5f b5 95 be c6 a7 a1 be ea f9 63 3e
       0.3588532 -0.29239938 -0.31573313 0.22263303
000010 58 6a bb 3e 8b bc 5a 3e 1a 58 d3 bc 20 1e b3 3e
       0.3660457 0.21360986 -0.025798846 0.3498392
000020 99 fe be be 36 c4 3d be 8d 87 81 bd e7 a9 95 be
       -0.37303618 -0.1853188 -0.063246824 -0.29231188
000030 b8 01 fa bc 96 4e 0f bf f1 8c e1 be 67 07 14 bf
       -0.030518398 -0.5597929 -0.44052842 -0.57823795
000040 e1 f6 c3 bd 43 36 c3 be 30 53 01 3f 5d 91 eb 3e
       -0.09568573 -0.38127336 0.5051756 0.4600934
000050 1c cf dd bd 67 42 c2 be 1d e7 06 bf ba a4 3b bd
       -0.108305186 -0.37941286 -0.526964 -0.045811392
000060 ef e3 70 bd cc 5e fb bc e6 f1 07 3e e2 64 67 bb
       -0.058811124 -0.030684851 0.1327587 -0.0035307934
000070 79 b0 be be ea 0e e9 be c2 15 ba 3e 66 a3 c1 be
       -0.37244013 -0.4551919 0.36344725 -0.37819976
000080 cc 0a 09 3c ca 06 dc 3c 8b f0 c1 be 09 fb f6 3d
       0.008364391 0.026858706 -0.37878832 0.120596
000090 1d a2 d7 bd 06 23 91 3d b4 99 1b be be 27 8e be
       -0.105289675 0.07086758 -0.15195352 -0.27764696
0000a0 b4 05 99 3e 35 14 c1 3e a7 b2 60 be b8 ed 78 bd
       0.29887164 0.3771073 -0.2194315 -0.06077358
0000b0 ad 75 7a be 7b 27 d9 be fd b9 c5 3e c5 3f 04 bf
       -0.24458952 -0.42412934 0.3861846 -0.51659805
0000c0 e3 e1 8b bd 03 68 c0 3e c1 04 6b 3e 70 6c 66 be
       -0.06830194 0.37579355 0.22951032 -0.22502303
0000d0 5d df 57 3e cf 39 04 3f ed 1e c5 be ff c9 ae 3d
       0.210813 0.5165071 -0.38500157 0.085346214
0000e0 f7 e0 a4 be 5f 6f ec be 56 cd de bd 26 d8 dc bd
       -0.32202885 -0.4617872 -0.108790085 -0.107834145
0000f0 64 3f 5a be e5 01 33 3e 3e 97 b2 be de 36 0a be
       -0.21313244 0.17481191 -0.34881014 -0.13497493
000100 ca 04 38 bd ed f3 7e bc 77 c7 9b be e9 d0 3c 3d
       -0.044926442 -0.015561086 -0.30425617 0.04609767
000110 1c f0 17 3d 8e cc ff 3e e2 ef e9 3e 24 b9 11 3e
       0.03709422 0.4996075 0.4569083 0.14230782
000120 14 69 b4 be 3a 52 02 bf 8f df 97 3e f8 ec 72 bd
       -0.35236418 -0.5090672 0.2966275 -0.059308022
000130 72 a9 86 bd 68 18 df 3e e8 1f 8c 3d a9 83 b7 be
       -0.06575288 0.43573308 0.06842023 -0.35842636
000140 58 33 85 be 41 7d 05 3f cd 55 ea 3e 27 e4 14 3e
       -0.26015735 0.5214425 0.45768586 0.14540158
000150 7b 09 19 3d 40 63 b0 be 15 29 ee bd ce ec 8e 3e
       0.037362557 -0.34450722 -0.116289295 0.27915043
000160 6a 77 37 3e a6 e6 12 be 9f fe cd be c0 69 15 be
       0.17916647 -0.14345798 -0.40233323 -0.14591122
000170 15 00 a2 3d 09 84 84 be 8c b1 c9 be b1 34 f7 bd
       0.07910172 -0.25881985 -0.3939327 -0.12070597
000180 51 37 96 be ac f4 20 3e e0 aa da be b6 20 ae 3e
       -0.29339078 0.15718335 -0.42708492 0.3400933
000190 8c af 69 be f1 30 b0 be ed 5b cb be b9 71 80 3e
       -0.22820872 -0.3441234 -0.3971857 0.25086764
0001a0 2f 2e 89 be ae 60 00 bf 01 cb 76 3e ad 3e e9 be
       -0.26793048 -0.5014752 0.24100877 -0.4555563
0001b0 83 bd ac 3e 8d b8 d5 3e 50 7a e0 bc 52 e7 01 3f
       0.33738336 0.41742364 -0.027402073 0.5074359
0001c0 e2 a4 e6 be f3 c3 89 be 2a 82 f9 3d ff 5d ba 3d
       -0.4504767 -0.2690731 0.1218303 0.090999596
0001d0 0d d1 be bc c3 42 10 be 53 a9 2f 3e c9 24 1d be
       -0.023293043 -0.14087968 0.17154436 -0.15346064
0001e0 b0 b3 96 bd af 6d e1 be ce 43 8a bd 5e ad 71 3e
       -0.073584914 -0.44028994 -0.06751214 0.2360129
0001f0 11 ab 49 3e 90 dc a9 bd 84 4d 98 be b0 3c 5c 3c
       0.19694163 -0.08294022 -0.2974664 0.013442203
000200 25 8c 82 3e 5d 7e f4 be 83 e5 80 be 75 82 f5 3b
       0.25497547 -0.47752658 -0.25175104 0.0074923583
000210 e6 d0 a0 3e 12 fa e4 3e b4 62 51 be da a5 dc be
       0.31409377 0.44722039 -0.20447809 -0.43095285
000220 c4 df 2e 3e 74 af 58 be 3a 98 f9 3e e3 da e8 3e
       0.17077547 -0.2116068 0.48748952 0.45479497
000230 f3 c4 0c 3f 77 37 03 3f 39 0e 93 be fa 90 a8 3e
       0.5498802 0.5125651 -0.2872179 0.32923108
000240 a2 e0 2f 3e 2f 59 93 be 96 25 5b be 73 bb c3 bd
       0.17175534 -0.2877898 -0.21401057 -0.095572375
000250 b4 4f 03 3f c6 b1 3c 3e d9 34 d1 3e 7c cf 9d 3e
       0.5129349 0.1842719 0.40860632 0.3082236
000260 81 0d bf 3e 02 9b a4 3e 27 c9 33 be 12 10 33 3e
       0.3731499 0.32149512 -0.17557202 0.17486599
000270 06 bc 59 3e 7e d0 03 bf 84 26 93 3e 7d 30 de be
       0.21263131 -0.5149001 0.28740323 -0.4339637
000280 59 f2 cc be b9 b9 a6 3d 5f a4 a4 3e 84 8c 48 3e
       -0.40028647 0.081408925 0.32156655 0.19584852
000290 3c f9 08 be f4 8e f4 3c 10 4c a9 be d8 6d 0b be
       -0.13376325 0.029853322 -0.33065844 -0.13616121
0002a0 d3 82 df 3a 07 57 32 3e 81 01 eb bd c2 07 68 bd
       0.0017052538 0.17416011 -0.11474896 -0.056648023
0002b0 d0 5d 4c be 92 41 d8 3d 75 9b 58 bc f0 01 52 be
       -0.19957662 0.105593815 -0.013220658 -0.20508552
0002c0 96 a6 32 be 79 83 c5 be 15 3b d6 bd 7d bf d6 bd
       -0.1744636 -0.38576868 -0.10460488 -0.10485742
0002d0 10 8e 96 3e e8 73 ec bd cb b7 de be 91 f8 a1 bd
       0.2940526 -0.11545545 -0.43499598 -0.079087384
0002e0 a3 38 9b 3e 21 16 ea be 65 dc ce 3e b9 98 c1 3d
       0.30316648 -0.45720008 0.40402523 0.09452958
0002f0 f6 ee c4 3d e0 54 2d be d7 ce 2d bd a9 19 d6 3e
       0.09615891 -0.16926908 -0.042433586 0.41816452
000300 51 2d b6 3d 2d 36 3f 3d 87 95 4d be 0f b8 b0 bd
       0.08895362 0.046682525 -0.20076571 -0.086288564
000310 30 30 76 3e ca 6a e4 be c2 07 63 be c9 1e 4a 3d
       0.2404182 -0.44612724 -0.22170928 0.049345765
000320 44 e2 64 bd de 4e 36 3e cd c7 de be e4 58 9b 3e
       -0.055879846 0.17803523 -0.4351181 0.30341256
000330 24 44 ad 3e ee 37 94 3e 4b 61 f9 3d 82 f9 92 be
       0.3384105 0.2894892 0.1217676 -0.28705984
000340 6e 85 46 be 2c 77 1c bd 0b fb 8c 3e e7 b5 0c 3e
       -0.19386837 -0.03819959 0.2753528 0.13741265
000350 c2 9f d7 bd 42 9d 01 bd 3e a0 4c 3e b2 c4 b5 3e
       -0.10528518 -0.031644113 0.19983003 0.3550163
000360 f4 3f 2f be 7f 24 99 3e 1e c6 f7 be 29 01 87 be
       -0.1711424 0.29910657 -0.4839334 -0.26368073
000370 39 4d b7 3e 20 3b a4 be 4d 4f 94 be 25 40 98 b9
       0.35801104 -0.3207636 -0.28966752 -0.0002903949
000380 b9 5f b6 3d c0 44 aa 3e 88 6a 46 be f3 d7 6c be
       0.089049764 0.33255577 -0.19376576 -0.23129253
000390 27 bd f3 3e 78 3e 77 3e 24 57 38 bc 6d 27 69 3e
       0.4760525 0.24144924 -0.011251245 0.22768946
0003a0 1c 6c 44 be 3e cd 83 3e e9 b7 fc 3e b0 10 10 bd
       -0.19181865 0.25742525 0.49359062 -0.035172164
0003b0 29 40 ea 3e 9b 25 d5 bc 77 7f de be c8 30 3d be
       0.45752075 -0.026018908 -0.43456623 -0.1847564
0003c0 8f 3b ad bd ca 55 43 3e 0e 5c b1 be 84 70 88 bd
       -0.084586255 0.19075695 -0.34640545 -0.06662086
0003d0 34 2a b8 3e ce 6b 05 3f bc 14 4e 3e f4 3f e8 be
       0.35969698 0.5211762 0.20125097 -0.45361292
0003e0 09 0c e6 3e af 2e 2a bd dc f0 94 bd fa 54 97 3d
       0.44931057 -0.041548427 -0.07272503 0.07389255
0003f0 cd 6b b3 3e 33 c2 85 3e 73 7d 17 be 97 08 82 3e
       0.35043183 0.26124725 -0.14793949 0.2539718

encoder_net.0.bias f4 [128]
000000 1f d9 49 3e 9b 7f 5c be d9 16 47 3d 2c 2b b3 3e
       0.19711731 -0.21533053 0.048605774 0.34993875
000010 07 1e 33 3e 13 f1 e2 bd 87 88 00 3f 13 ad 58 3e
       0.17491923 -0.110811375 0.50208324 0.21159773
000020 b9 96 cb be 02 8f 19 be 49 1a 2a be 69 f7 78 3e
       -0.3976343 -0.1499596 -0.1661159 0.2431313
000030 96 67 4d be 08 2e 7a be 60 53 bf 3e 6d e6 09 bf
       -0.20059046 -0.24431622 0.37368298 -0.53867227
000040 02 43 81 3e 2c f2 aa be 4d 35 0c 3e 03 a8 d4 3d
       0.25246435 -0.33387887 0.13692208 0.10383608
000050 7c 15 cb 3e 87 51 6a 3c 5e 0b 10 3f 7e 98 07 3f
       0.3966483 0.014301664 0.56267345 0.5296706
000060 1c e4 04 bf d4 69 b7 be 40 98 b2 3e f5 58 9a bd
       -0.5191057 -0.35822928 0.34881783 -0.075364985
000070 f7 2a 04 be 5d 09 1e 3f a0 cd cd 3e ac da 0c 3f
       -0.12907015 0.6173304 0.40195942 0.55021167
000080 a1 0a f9 be ce 18 b1 be 74 3f 66 3e b3 ec f8 3e
       -0.48640922 -0.34589237 0.22485143 0.48618087
000090 74 29 ee 3e 32 2b 66 be c6 cb af be be 63 bb be
       0.46516 -0.22477415 -0.34335154 -0.36599535
0000a0 50 d6 f8 3e 2b f3 c0 3d a4 82 8b 3e 1b 1d ed 3e
       0.48601007 0.094213806 0.27248108 0.46311268
0000b0 9e 01 7e be e0 6b b5 be 48 3e 14 3d e4 2c 2e be
       -0.24805304 -0.35433865 0.03619221 -0.17009312
0000c0 11 69 ab 3e 20 36 2a be a2 ae ba bd 56 fd bc be
       0.33478597 -0.1662221 -0.0911534 -0.3691203
0000d0 e1 b3 0c 3f 15 1a d2 3e 9c 78 12 bf 11 28 75 3e
       0.54961973 0.41035524 -0.57215285 0.23941065
0000e0 96 91 c1 3e 3c 3b 33 3e 0d cd c5 be 54 a2 cc 3e
       0.37806386 0.17503065 -0.38633004 0.39967597
0000f0 3d d6 ef 3e fb d5 40 3e 68 31 e4 3e b4 5f 6f 3e
       0.46843138 0.18831627 0.44568944 0.23376352
000100 0c c9 89 be cd 7a 3c 3e 8a e4 60 3d 43 ec 0e 3f
       -0.269112 0.1840622 0.05490545 0.55829257
000110 84 07 33 be d6 ff a7 3e 6a 69 7b 3e 37 57 c2 be
       -0.17483336 0.32812375 0.24551931 -0.37957165
000120 3d 7f 9e 3d 26 cb c0 bd e9 29 d4 3e e6 f0 c5 3e
       0.077391125 -0.094137475 0.41438225 0.38660353
000130 1b f6 fc 3e 1f c1 30 be ea d8 b9 be e0 33 8c be
       0.49406514 -0.1726117 -0.36298305 -0.27383327
000140 e1 48 c8 be e3 23 62 bc cc 4a 99 be 75 e3 2c 3e
       -0.39118102 -0.013802501 -0.29939878 0.16883643
000150 18 55 64 3e 74 2e d8 bd e8 7c dd 3e 8b 83 0f 3f
       0.22298086 -0.10555735 0.43259358 0.56060094
000160 e3 a8 fd be 2d f5 86 be 77 79 c3 be 52 d4 b9 be
       -0.49542913 -0.2635893 -0.38178608 -0.362948
000170 c1 87 3d 3e 51 8a 99 bb 00 a6 00 be f7 00 61 3b
       0.18508817 -0.004685678 -0.12563324 0.003433285
000180 9e 76 10 3f 14 74 d9 bd 38 3f fd be a1 09 61 bb
       0.56430995 -0.10617843 -0.49462295 -0.0034338015
000190 2d 8f 79 3d a4 d2 d1 be 14 64 82 3e 34 2c b3 3e
       0.06092756 -0.4098102 0.2546698 0.34994662
0001a0 ec 96 5e 3e 37 62 ee 3e 3f 29 29 be 65 8f c7 3e
       0.2173726 0.46559307 -0.1651964 0.3897659
0001b0 09 d0 18 be 71 ec 7d 3e 03 de 1c bb 7e fc 7c 3e
       -0.14923109 0.24797226 -0.002393604 0.24705693
0001c0 79 05 90 3d 4b c7 2d 3e 2c fa d8 3e 43 6c b7 be
       0.07032294 0.16970555 0.42378366 -0.35824785
0001d0 32 58 0e 3f 14 5c e4 be ad f7 e1 3e e3 5e 2f 3e
       0.55603325 -0.446015 0.44134274 0.1712604
0001e0 21 ac 1c be 4f 73 c8 3e ae 53 06 3f c7 bd 02 3f
       -0.15300037 0.39150473 0.52471435 0.5107083
0001f0 eb cf 58 be c4 7f d0 bd 89 ed e1 3e 62 c5 8c be
       -0.21173064 -0.10180619 0.44126537 -0.2749434

encoder_net.2.weight f4 [64, 128]
000000 89 3d 18 bc 4c 49 8c 3d 5b ef f9 3c 90 9e 7e 3d
       -0.009292015 0.06849918 0.030509641 0.062162936
000010 33 e0 8c bd 40 14 e4 bc e7 a2 cb 3d 3a bf 23 3d
       -0.068787 -0.027841687 0.099431805 0.03997729
000020 59 f7 88 bd 6a 07 17 bd ff 33 16 3c 66 15 67 bd
       -0.06687803 -0.036872305 0.00916767 -0.05641689
000030 1b cb 81 bb 32 8d cf bc 4e 4e 58 3d cd 2c bf bd
       -0.0039609796 -0.025335882 0.052809052 -0.09334717
000040 a1 13 3a bd eb ac f2 bb 48 74 02 3d c1 b6 97 3c
       -0.045428876 -0.0074058673 0.031849176 0.018519761
000050 15 61 fd bc a8 e2 0e bc 96 af b0 38 ca 55 80 3c
       -0.030930081 -0.008721031 8.4250394e-05 0.015665907
000060 02 e7 37 3d 0b e4 03 3c 6b b0 80 bd 23 e9 8f 3d
       0.04489804 0.008049975 -0.06283649 0.07026889
000070 06 eb 12 bd 5e c2 10 bd ea fe b3 3d 33 cd e8 3d
       -0.035868667 -0.035341613 0.087888554 0.11367264
000080 0c 97 93 bd 9d c0 8a bd 4f 26 9b 3d 01 9a c6 3b
       -0.07206544 -0.06775019 0.07575666 0.006060839
000090 0f 7c 40 bd 47 e3 7b bc b6 11 cc 3d 2b d8 54 bd
       -0.04699331 -0.015374011 0.099643156 -0.051963966
0000a0 17 24 d3 bd 6c e5 e0 bd 8b 4a 3e bd 03 bd 80 bc
       -0.10309618 -0.10981259 -0.04645781 -0.015715128
0000b0 47 c9 44 bd dd b1 af 3d ee bd f1 3c c6 37 6c 3b
       -0.048043516 0.085788466 0.02950951 0.0036043986
0000c0 88 bc a2 bd 2e 26 5a bd ee c3 99 bd a9 f7 df 3d
       -0.07946116 -0.053259067 -0.07508074 0.10935909
0000d0 31 09 b4 3d 52 98 c6 3c ce 15 81 bc c0 cf 64 bd
       0.087908156 0.024242554 -0.015757468 -0.05586219
0000e0 75 c2 a0 3d cd 0f a0 3d 48 b7 8e bd 14 28 0d 3d
       0.0784959 0.07815514 -0.06968552 0.03446205
0000f0 20 8b 3a 3d cf 22 84 bd 9f d6 d6 3c 04 09 b5 3d
       0.045542836 -0.06451952 0.026225386 0.0883961
000100 88 9c ad bc 09 e9 41 3d 8f ee a5 bc 12 d3 a2 3d
       -0.021192804 0.04734138 -0.020255355 0.07950415
000110 ec 8b d8 3c fa 88 b8 bb 29 02 5e 3d b5 75 ac 3c
       0.026433907 -0.0056315633 0.05420128 0.02105222
000120 19 28 b0 bd eb 0c c7 bd b0 1a 8f 3c 1b 29 60 bd
       -0.08601398 -0.09719261 0.01746878 -0.0547267
000130 df 10 13 3d 94 2e 28 bd fd 92 7a 3d 41 c3 a7 3d
       0.03590476 -0.041060045 0.061175335 0.081915386
000140 01 dc 13 be 3b dd ad 3c 78 22 20 3d 05 7b d4 3c
       -0.14439394 0.021223655 0.039095372 0.025937567
000150 83 bf 28 bd cf 3d 0e bd aa bc 26 3e c4 8e 78 3d
       -0.041198265 -0.034726914 0.16282907 0.060683027
000160 f5 f5 47 bd 3e dc 37 bd e0 8b 21 bc 1f 3a 08 bc
       -0.048818547 -0.044887774 -0.009860009 -0.008314638
000170 6e 33 89 3d bb f7 bf bd eb ef 29 bd 71 52 6f bc
       0.066992626 -0.09373423 -0.04148857 -0.014607058
000180 71 85 aa bc 0c c5 f3 3c 7d 8b 44 bd c7 16 fa 3b
       -0.020815583 0.029757045 -0.04798459 0.00763211
000190 c0 f1 b5 3c 18 35 c3 bd 35 f7 24 3d bd 41 5a 3d
       0.022210002 -0.09531611 0.040274817 0.05328535
0001a0 a2 b7 26 3d 2d a0 88 3d 54 94 d2 bc 61 f2 8b 3d
       0.04070247 0.06671176 -0.025705494 0.068333395
0001b0 19 ce 44 3d f7 98 d5 bc 7d 3d e0 3a 85 a1 15 3d
       0.048048113 -0.026073916 0.0017108169 0.03653099
0001c0 3f 84 32 3d cc 8d b0 bd 2b 81 58 3d 90 c1 6a 3d
       0.04358315 -0.086207956 0.05285756 0.0573135
0001d0 59 7a 69 bd 03 51 be 3d f1 de b0 3d d3 10 52 3d
       -0.057001445 0.092927955 0.08636273 0.051285576
0001e0 2d 72 0e bd 55 a9 75 3d 91 56 53 bc 78 82 06 3d
       -0.034776855 0.05997594 -0.012899057 0.03283927
0001f0 fe 43 fb bb 41 4d 3a 3d a6 4a 70 bb be ee c1 3b
       -0.0076680174 0.04548383 -0.0036665588 0.005918353
000200 91 92 42 3d ea 85 0d bc 59 1e f7 bc c6 21 8a bd
       0.047503058 -0.008637885 -0.030165838 -0.06744723
000210 76 47 4a 3d 28 6c a4 bd 15 51 14 3e 6d 1b da bd
       0.049384557 -0.08028442 0.14484055 -0.10649762
000220 38 57 b0 bd 67 ac 73 bd 64 b7 6d bd 59 79 84 bc
       -0.08610386 -0.059490588 -0.058036223 -0.016171144
000230 54 be a0 bd 5b 0f bd 3c 7e 13 1f 3c 00 84 88 bd
       -0.07848802 0.023078611 0.009709237 -0.06665802
000240 36 0c 29 3e f5 bd 6e bc 4a ac 0c bd 2a d1 17 3d
       0.16508564 -0.0145716565 -0.034343995 0.03706471
000250 98 f8 d8 3d 48 19 2c 3d f0 f5 8a 3d 1c 5b 02 3d
       0.105942905 0.042016298 0.0678519 0.03182517
000260 ed df 64 bc 3a 34 01 bd b7 9a c0 bd 51 48 3a bb
       -0.013969404 -0.031543948 -0.094045095 -0.0028424452
000270 49 5c 73 bd e2 ae 98 3d e7 48 40 bd de c2 cf 3d
       -0.05941418 0.07455231 -0.046944525 0.1014459
000280 f3 06 48 3d 84 7e b1 3b 95 85 3b bd 8e 9f e4 bc
       0.048834752 0.005416693 -0.04578169 -0.027908113
000290 73 7e 59 3c 17 0d ad 3d 05 88 f2 3b f9 03 84 3c
       0.013274777 0.08449762 0.0074014687 0.016115176
0002a0 d9 9d 65 3a 33 a1 a4 bd 46 f2 1a bd 89 d0 5b 3d
       0.0008759178 -0.08038559 -0.037828706 0.05366567
0002b0 33 43 49 3d 12 4e b9 bd 28 41 99 bd b6 6d 01 3d
       0.04913635 -0.09048094 -0.07483131 0.03159877
0002c0 48 40 c2 bd 16 11 3d 3d f3 c7 3d 3d c9 bf 87 bc
       -0.09484917 0.046158873 0.046333265 -0.016570942
0002d0 c6 65 a1 3d c9 11 08 3d cb fc 4b bd a9 39 12 3c
       0.0788074 0.033220086 -0.04980163 0.00892488
0002e0 1c 3a 91 bc 30 59 be bc f3 6d c6 bd 86 74 2a bd
       -0.017727904 -0.023235887 -0.0968894 -0.04161503
0002f0 20 7e 88 bc 03 ca 64 bd 5f 96 25 3d 12 eb 68 bc
       -0.016661704 -0.055856716 0.04042661 -0.014216201
000300 46 32 02 3d c8 8a 4c bc a9 9f 32 3d d1 bf ae bd
       0.031786226 -0.01248426 0.043609295 -0.0853268
000310 6c d7 2d 3d b5 9d 19 3e 11 9d eb 3d 6f 22 b2 bc
       0.04244177 0.15001567 0.115045674 -0.021744935
000320 5c 5c d5 bc a0 42 ea bc ce 73 e3 bc ee 97 c2 bd
       -0.026045017 -0.028596222 -0.02776518 -0.095016345
000330 98 66 69 3d 45 3e ce 3d c9 42 24 3d 66 7c 12 be
       0.056982607 0.10070471 0.040102754 -0.14305267
000340 6e 76 c3 bd 10 42 2a 3d d5 b6 1c 3c 92 92 37 bd
       -0.09544073 0.04156691 0.009565075 -0.044817515
000350 5e 35 3a bd f0 00 ed bc 5f 72 35 3c 6e 8b 04 bd
       -0.04546105 -0.028931111 0.0110746315 -0.032359533
000360 39 70 a6 bd 08 4a bc 3d 6a 69 55 3d 17 7b 97 bd
       -0.081268735 0.09193808 0.052102484 -0.073965244
000370 9d 8f 45 3a 27 da 90 bd ca 00 14 bc be 68 75 3d
       0.00075363537 -0.07072859 -0.009033391 0.059914343
000380 b0 7e 38 3e df 2f a9 3b c2 56 72 3d c5 cb ed 3c
       0.18017077 0.0051631774 0.05916477 0.029027829
000390 d2 9c 5f 3d d1 84 b0 bd 62 e6 a5 3c 6b 30 9c 3c
       0.054592915 -0.08619083 0.020251457 0.019066056
0003a0 92 a4 b4 3c 25 03 35 3e a2 a6 bc 3c 08 67 b6 3d
       0.02205113 0.17676981 0.023028675 0.089063704
0003b0 a7 33 26 3d fe 3e ec 3c db 3e 47 bd e7 36 75 bd
       0.040576603 0.02883863 -0.048643928 -0.059866812
0003c0 63 d4 a2 bd f0 aa 71 bd 81 de ca bb 8b fb cb bb
       -0.07950666 -0.05900091 -0.0061910753 -0.0062250546
0003d0 64 ed 4a bd 1b 44 c6 bc 42 d6 bb 3c 3b 2d f7 bd
       -0.0495428 -0.024202397 0.022929315 -0.12069174
0003e0 cf 67 ab 3d fe 03 b4 bc 26 56 58 bd 3b b5 ed 3d
       0.08369409 -0.02197456 -0.052816533 0.116068326
0003f0 68 a9 58 3d 3e ab 89 bd eb 61 67 bd c7 2f 7a 3d
       0.052895933 -0.06722115 -0.056489866 0.06108072

encoder_net.2.bias f4 [64]
000000 c8 0b a9 3d e7 29 11 3d d1 80 2f 3d e2 01 ac bd
       0.082542 0.03544035 0.04284746 -0.083987966
000010 ec 92 ba 3d a7 b7 cf 3c 1c 07 86 3d ba 9e 83 bd
       0.091100544 0.025356127 0.06544325 -0.06426759
000020 98 f1 1c 3d fc 70 5e bd c6 6b e8 3c 40 b3 73 bd
       0.03831634 -0.05430697 0.028371703 -0.059497118
000030 f1 ca b5 bd 5b ca 27 3d 31 25 62 3d 4e 6b f3 bc
       -0.088765986 0.040964466 0.05521125 -0.029714253
000040 53 73 39 3c ab e4 82 bd a4 4c 5f 3d 42 85 5f bd
       0.011318999 -0.06391271 0.05451645 -0.054570444
000050 c9 15 fc bc 6c 37 88 3d ec a4 f0 ba ee 65 26 3c
       -0.030772107 0.06651196 -0.0018359697 0.010156138
000060 e5 53 70 b9 5a 33 99 3d 28 1e 6e bd ee 29 81 bd
       -0.00022919437 0.07480498 -0.058134228 -0.063068256
000070 75 72 41 3d 3b 09 6c bd 4a a3 ad bd 2e 99 b9 bc
       0.047228295 -0.05762599 -0.084784105 -0.02265605
000080 d5 61 cb 3c 3a ec 37 3d 1b fc b3 bd d2 3c a3 3d
       0.024826923 0.044903018 -0.0878832 0.07970585
000090 ff 97 39 3d 44 22 6b bd 13 25 0c bd 51 8b ac 3d
       0.04531097 -0.057405725 -0.034215044 0.0842501
0000a0 0e 12 55 bd ea 48 86 bd f1 b1 25 3c fd 05 d0 3c
       -0.05201917 -0.06556876 0.010113225 0.02539348
0000b0 12 52 a0 3d f7 f7 a9 3b 59 56 d6 bd b7 75 cc 3d
       0.07828154 0.0051870304 -0.10465688 0.0998339
0000c0 36 c6 4d bd ed 46 d9 3d 20 b9 8d bd 5d d4 b8 3c
       -0.050237857 0.10609231 -0.069200754 0.0225622
0000d0 60 c3 ad 3d 2c 5b 81 bb 55 88 8e 3a d3 67 46 bd
       0.084845304 -0.003947636 0.001087437 -0.04843886
0000e0 2f d3 50 3d 00 c9 03 bd 99 71 33 3d 3e ba be bd
       0.05098265 -0.03217411 0.043809507 -0.09312867
0000f0 c5 da e0 bc c7 f1 c8 3d 57 1d 26 bd af 1c a5 3d
       -0.027448067 0.0981174 -0.040555324 0.080621116

encoder_net.4.weight f4 [32, 64]
000000 a9 17 a5 bd 26 29 36 bd 88 f5 f3 bd 3e 80 d2 3c
       -0.080611534 -0.044472836 -0.11912066 0.025695916
000010 72 53 19 be fc 09 5d 3c 49 55 df 3d b8 47 b9 3b
       -0.14973238 0.01349115 0.10904939 0.0056543015
000020 78 55 d9 bc 54 95 e0 bd a5 91 c1 bd 0f bf 39 bd
       -0.026530012 -0.10965982 -0.094516076 -0.045348223
000030 39 ab 65 bd be 92 5c bd 95 8f 0f 3e ce a6 4f bd
       -0.056071494 -0.05385088 0.14019616 -0.050696187
000040 4a 2e 97 bd 8b 6a cf bd 43 f7 e8 bd 81 c1 f8 bd
       -0.07381876 -0.10127743 -0.113752864 -0.12146283
000050 4d 8b 98 3d cf 82 a0 3d ca 84 ca bd 8e 0d 0e bd
       0.074484445 0.0783745 -0.09888609 -0.034680896
000060 cd 9e b6 3d 6d 77 07 be 8a 4b a3 bd 99 8a 2a 3e
       0.089170076 -0.13229151 -0.07973392 0.16654433
000070 6e fe a1 bd 0f 23 1f 3e ef 43 89 3d b3 10 90 3d
       -0.07909857 0.15540718 0.067024104 0.07034435
000080 4f 84 88 bd 15 bd da 3d 13 4b 2f 3e 0d 01 63 3d
       -0.06665861 0.10680596 0.17118482 0.055420924
000090 d8 88 e1 3d 44 3b 80 bc 95 01 73 3d cf 79 0f 3e
       0.11012429 -0.01565326 0.05932768 0.1401131
0000a0 e4 85 35 3d 8d 20 c8 bd 23 fb c6 bd f5 dc ed 3d
       0.04431714 -0.097718336 -0.09715869 0.1161441
0000b0 96 da 04 3e 6b 67 78 bc fa 7a c6 3d 4e a1 24 3e
       0.12974009 -0.0151613755 0.09691425 0.16077158
0000c0 98 fc 20 bd 54 e8 08 be 0a a1 75 bd 10 24 05 3e
       -0.039303392 -0.13369876 -0.059968032 0.13002038
0000d0 2e 0a ca bc 44 00 aa 3c aa 4f 4d 3d 08 4c 7e bd
       -0.024663057 0.02075208 0.0501248 -0.062084228
0000e0 a3 60 a4 bd 79 22 c5 3c fa 70 da bd 76 02 e4 3d
       -0.080262445 0.02406429 -0.1066608 0.11133282
0000f0 92 60 0f be 2c 6d 05 3e 09 c3 0b 3e e5 0b 05 be
       -0.14001682 0.13029927 0.13648619 -0.12992819
000100 1c 6a 18 be 71 ec c7 bd 75 c2 e2 bd 71 13 0f 3e
       -0.14884228 -0.097618945 -0.11072246 0.1397226
000110 2f c0 d0 bd 97 8f a7 bd 09 7d af 3c ec 5c bc 3d
       -0.10192906 -0.081816845 0.021421926 0.09197411
000120 3b 73 ae 3d b2 ec 26 be 81 89 0b 3e 57 93 10 bd
       0.08518072 -0.1630123 0.13626672 -0.035296764
000130 f4 43 90 3c a1 75 9e bd f7 b6 ec 3d d2 2f ee bd
       0.017610528 -0.0773728 0.11558335 -0.11630215
000140 17 7b a0 bd 9a f0 59 3d 56 b9 fb bd 69 ea ba 3d
       -0.078359775 0.05320797 -0.122912094 0.091267414
000150 c7 58 1d be e5 ff 5d bc 55 df 85 bd 59 4f 2e 3e
       -0.15365897 -0.01354978 -0.06536738 0.17022456
000160 71 1a 43 3d a2 d3 ac 3c 86 77 a1 bd e5 04 16 bd
       0.04763264 0.021097008 -0.078841254 -0.03662576
000170 a5 dd ab 3d 0e ec 23 3e 31 c2 3a 3d 53 34 71 3c
       0.08391885 0.16008016 0.04559535 0.014721948
000180 44 b1 a4 bd 08 57 1e be 00 60 18 3d 11 7b a6 bc
       -0.08041623 -0.15462887 0.037200928 -0.020322355
000190 8d a1 2f be e5 ac 64 3d e3 d4 83 3d ae 3d aa 3b
       -0.1715147 0.055828948 0.06437089 0.005195341
0001a0 d4 5d 6a bd 74 86 5c bd dd 53 84 3d be 57 b8 bc
       -0.057218388 -0.053839162 0.06461308 -0.022502776
0001b0 c4 f0 44 bd f1 03 0b be 9c d4 c0 3d 8a 15 90 bd
       -0.048081174 -0.13575722 0.09415552 -0.07035358
0001c0 83 5e 04 3d 25 23 35 be f2 7a 0a 3e f6 f8 69 bd
       0.032316696 -0.17689188 0.13523462 -0.057122193
0001d0 14 78 a1 bd dd e9 20 be 73 fb 06 3e 3a 90 fa 3d
       -0.07884231 -0.15714212 0.13181858 0.1223454
0001e0 89 e2 c9 3d 16 53 d6 3d f9 01 57 bd 1c 6e 28 3d
       0.09857661 0.10465066 -0.052492116 0.041120633
0001f0 4d da 8f 3c a0 57 01 3e 43 a9 ff 3d c0 fa 87 bd
       0.017560149 0.12631083 0.12483456 -0.06639624
000200 aa 53 eb bd ed b3 32 3d 84 45 82 3c c6 3d 4c 3d
       -0.11490567 0.04362862 0.015902288 0.0498636
000210 8c 72 23 bd 16 da c7 3d bf 9f 21 3d a6 ec 22 3d
       -0.039904162 0.097583935 0.039458986 0.039776467
000220 52 d9 37 3e 51 f4 10 be 79 49 10 bd f1 f9 30 bd
       0.17953995 -0.141557 -0.03522632 -0.043207113
000230 8b f5 d5 bd e9 f1 33 be bc 3a f4 bd 10 3b be bd
       -0.10447224 -0.1757275 -0.11925265 -0.09288609
000240 4a b5 74 3d 73 26 7f 3c ae 94 a7 3d e2 3d 30 bd
       0.059743203 0.015573132 0.08182655 -0.043027766
000250 b8 46 e0 bd 4d b6 69 bd 8f 52 e9 bd 62 bb ff bc
       -0.109509885 -0.05705862 -0.113927 -0.03121728
000260 46 35 ab 3d 99 6f f2 3c a5 58 71 bd 3d 11 7f 3d
       0.083597705 0.02959423 -0.05892243 0.0622723
000270 55 b3 1b be be 89 9d 3d 6a 82 a5 bc c3 e3 b9 bd
       -0.15205128 0.07692288 -0.020203788 -0.09076645
000280 79 3f dd 3d a4 f4 88 3d f6 bb 71 bd 95 59 9c 3d
       0.10803122 0.066872865 -0.059017144 0.07634274
000290 05 86 b8 3d e8 30 54 3d a7 19 82 bd 24 f6 fb 3d
       0.09009937 0.051804453 -0.06352549 0.12302807
0002a0 a5 84 64 bd d6 a0 d2 bd b5 35 79 be 76 f6 12 3e
       -0.055790562 -0.10284583 -0.24336894 0.1435183
0002b0 dd 1e 20 3e 25 ce 4e 3d fc fb a8 bd b7 a1 04 3e
       0.15636773 0.050489563 -0.08251187 0.12952314
0002c0 be 6c 97 3d 2a 2b 91 3d 75 07 f9 bd 04 74 a4 bc
       0.07393788 0.07088311 -0.121596254 -0.020074852
0002d0 65 7c 40 be 49 d1 b4 bd 4a dd c0 3d 6a 32 06 3e
       -0.18797453 -0.088289805 0.094172075 0.13105169
0002e0 3f bf 0f be bf 70 fc bc 03 cf 58 bd a8 50 5c 3d
       -0.14037798 -0.03081548 -0.052931797 0.053787857
0002f0 43 79 d3 bc ed 30 99 bc c3 95 f4 3d 94 b4 55 be
       -0.025814658 -0.018700087 0.11942627 -0.20869666
000300 a6 d1 2c be f9 b0 0f 3e be 6c 78 3e 9b 29 88 bd
       -0.1687685 0.14032353 0.24260232 -0.066485606
000310 86 12 a5 3d 28 ca 0e be e3 8b 8a 3c d7 38 2d bc
       0.08060174 -0.13944304 0.016912406 -0.010572634
000320 fd cc 6d 3d 1b 16 25 bd 07 b9 8f 3d ee 41 37 be
       0.05805682 -0.040304285 0.07017713 -0.17896244
000330 d3 75 90 3c 63 0d da bd 8a 43 b8 bd 3f ae 51 3c
       0.017634308 -0.106470846 -0.08997257 0.012797891
000340 10 65 ea bc 44 21 77 3d 64 69 5a 3e 3e 76 59 3e
       -0.028612643 0.06033446 0.21329266 0.21236512
000350 e7 e5 df bd aa f9 7c be 9f 85 28 3e fe e6 c5 bd
       -0.10932522 -0.24704614 0.16457222 -0.09663199
000360 d7 ae 28 be aa 5b 79 3d d0 e9 e6 3d 46 0f 66 be
       -0.16472946 0.060878433 0.11275065 -0.22466764
000370 b7 c8 1c be fc ef 1f 3e 6d 9e b5 bd 3e 27 2d bc
       -0.15310942 0.1561889 -0.08868108 -0.010568438
000380 61 fe e2 3c dd 76 50 3d 2c 24 91 3d 8d ba 88 3c
       0.027709188 0.050894607 0.07086977 0.016690517
000390 1b 21 f5 bd da a4 52 3e 65 bd 1e be a7 67 22 bd
       -0.11969205 0.20570698 -0.15501936 -0.03964963
0003a0 27 20 de 3d eb b3 f0 bb 4c 12 43 be f5 5f 54 3c
       0.10845976 -0.0073456666 -0.19049948 0.012962331
0003b0 5e 3c aa bc c5 73 24 3e 18 0e f5 bc 04 cb 08 3d
       -0.020780738 0.16059788 -0.029913947 0.033396736
0003c0 62 60 5f bb 21 11 a2 3d be 66 9d 3d 5a 3c e7 3b
       -0.0034084548 0.07913423 0.07685612 0.007056755
0003d0 06 78 1f be 05 7b 53 3d e6 4d 21 3e 4b 25 ba 3c
       -0.15573129 0.051630992 0.15752372 0.02272286
0003e0 62 c7 d4 3d 8b 6c 8f bd 36 d0 e1 3d c7 f6 0b 3d
       0.10389592 -0.07003125 0.11026041 0.034170892
0003f0 7a 60 4b 3d c1 79 1b bc 04 f7 ae bd f6 d8 d1 bd
       0.049652554 -0.009489478 -0.08543208 -0.1024646

encoder_net.4.bias f4 [32]
000000 48 c6 a0 3d ed a3 93 bd 26 fc 13 3e d6 6d 8c bc
       0.07850319 -0.07209001 0.14451656 -0.017142218
000010 79 57 db bd 56 1e 9c bd 22 4e a7 39 78 6a 97 bd
       -0.107100435 -0.076229736 0.00031910936 -0.07393354
000020 ee c4 d5 3d 86 b8 d0 bd 45 b6 f6 3c 31 aa c7 3d
       0.10437952 -0.10191445 0.03011621 0.09749258
000030 5b f0 d3 3b 38 59 e7 bd 01 ae d0 bc a8 70 07 3c
       0.0064678616 -0.11296314 -0.025473597 0.008266605
000040 a5 0c 21 be d8 69 be 3d 05 de 7b 3c 6e 3f 27 3d
       -0.1572748 0.09297532 0.015372758 0.040831976
000050 8b 2f a2 3d 9d 0c 3b be 2c 35 9e bc 9d 89 be 3d
       0.07919224 -0.1826653 -0.019312464 0.093035914
000060 d3 95 1e 3e 2f dd 63 bd 30 81 43 3d 82 1a fa bc
       0.15486841 -0.05563086 0.047730625 -0.030530218
000070 c9 6a dc bc 71 d1 17 3d 71 06 b6 bb 10 82 1a 3e
       -0.026906388 0.037064973 -0.005554967 0.15088677

fc_mu.weight f4 [8, 32]
000000 95 64 81 be 08 48 5a be 16 0e 31 be fd 86 1f 3e
       -0.2527205 -0.2131654 -0.1729053 0.15578838
000010 41 02 7f 3e 05 44 50 3e a3 59 c6 3d c4 72 d2 3d
       0.24903204 0.20338447 0.096850656 0.10275796
000020 df cd 5e 3e 52 d9 11 be 8d 74 80 be 53 4b 16 3c
       0.21758221 -0.14243057 -0.2508892 0.009173232
000030 80 4f cf 3d cc 2a 08 3e 36 33 3a be 29 56 4c 3e
       0.10122585 0.13297576 -0.18183598 0.19954742
000040 7c 18 6c be 52 d0 5f 3e 11 c0 c1 bc b3 57 f4 3c
       -0.23056215 0.21856812 -0.023651155 0.029826974
000050 82 88 87 be b0 54 01 3e 9a 1a 1f be 1e f5 1f be
       -0.26471335 0.12629962 -0.15537491 -0.15620849
000060 88 f4 48 3e ee ac 2b be 55 1c 3f 3d 8c a6 cb 3d
       0.19624531 -0.16765186 0.04665788 0.09943876
000070 57 8e 51 3e 5d 9e 5d be b3 81 44 3e 90 cc 90 bd
       0.20464455 -0.21642442 0.19190101 -0.07070267
000080 53 1f 02 3d 62 86 54 3b 2b 14 e0 3d 6b 5a a0 bd
       0.031768154 0.0032428731 0.10941347 -0.07829746
000090 ec f7 34 bd 6e 00 8d 3e f0 67 2c 3d 42 f8 4e 3e
       -0.04418175 0.2753939 0.04209131 0.2021189
0000a0 e4 dd 39 bd 7c 91 93 be 80 d4 ca bd 82 e8 97 bd
       -0.045377627 -0.28821933 -0.099038124 -0.07417394
0000b0 9f 00 89 3e 70 d1 1d 3e 57 a9 da bb 52 aa 0e 3e
       0.26758286 0.15411925 -0.006673019 0.1393216
0000c0 cb 15 4d bd 75 97 85 3c fa 61 54 3e ec 58 9b 3e
       -0.05006961 0.016307572 0.207405 0.3034128
0000d0 7f e2 ae bd db 55 4b 3e 75 a9 a6 3d 47 b6 93 3d
       -0.085392945 0.1985697 0.0813779 0.07212501
0000e0 40 75 5f 3e e5 a6 85 be a1 d7 f3 bc f7 a7 28 3d
       0.21822071 -0.26103893 -0.029765906 0.04117581
0000f0 52 a7 36 3e f0 6e 85 be eb 8b cc 3d eb 39 41 3d
       0.17837265 -0.260612 0.09987625 0.047174376
000100 d4 85 a3 bd 5c 82 f0 bd 5d e1 04 3e 45 54 15 3e
       -0.0798451 -0.11743614 0.12976594 0.14582928
000110 cc ee eb bd d0 14 29 3e b3 ce 5b 3d 3e 8d 63 3e
       -0.11520156 0.16511846 0.05366392 0.22221848
000120 ae 95 26 3e ee 56 84 be f0 ac 2c be 0a ae 1f be
       0.16268036 -0.25847572 -0.16862845 -0.15593734
000130 e6 86 c4 3d 73 cd 21 3d 22 ab ad bd 4f a2 00 3e
       0.09596042 0.039502572 -0.084799066 0.12561916
000140 1f 5a e2 bd c9 de 53 be e2 8d 52 3d 81 d1 24 3e
       -0.110523455 -0.20690455 0.05140484 0.16095544
000150 89 88 1c be 4e bd ed 3d 9d 27 a7 bb 6a 6d 11 3e
       -0.15286459 0.11608373 -0.005101158 0.14201894
000160 ae 3f e4 3c 0b 49 16 3d bd 5b 00 be 80 81 95 bd
       0.027862396 0.036690753 -0.12534995 -0.07300091
000170 60 8a 06 be 7a 47 e6 bd dd 31 8d bd d2 d1 1e 3d
       -0.13138723 -0.11244102 -0.06894276 0.03877432
000180 1d 98 ac bd 4a bb a3 3d 66 c9 8b 3c 1e c5 14 3e
       -0.08427451 0.07994707 0.017063808 0.14528319
000190 bc f6 46 bd a4 9e e7 bc 37 bf 6c 3e 78 29 0d 3e
       -0.048575148 -0.028273888 0.23119818 0.1378535
0001a0 5f 8f 2a bd c3 5a 50 be 90 df 49 3d d2 64 65 be
       -0.041640636 -0.20347123 0.04928547 -0.22401741
0001b0 fa 05 4d be 78 1b d3 3d 84 dd 2e bd 2e 55 54 be
       -0.20021811 0.103079736 -0.042691723 -0.20735618
0001c0 66 6c 6f 3e 6c 0b 91 bd 96 09 4e be 2a 4e dd 3d
       0.23381194 -0.07082257 -0.20120844 0.10805924
0001d0 92 27 7f 3d a0 e7 91 bd 6e 6e 33 bd 4b 9b c3 bd
       0.062293597 -0.07124257 -0.043806486 -0.09551104
0001e0 76 73 55 3e 7e 4e c4 3c 06 ad f4 3c f6 3d dc bd
       0.20844826 0.02396321 0.02986766 -0.107540056
0001f0 b5 8c 97 3c c0 5e 72 be ac 56 29 3e 0c 6d ea 3d
       0.018499712 -0.23668957 0.16536969 0.1144658
000200 0d 80 08 3e 97 a7 09 3d bb 5e b5 3e b4 4c 84 3e
       0.13330097 0.03360709 0.35423836 0.2583977
000210 4d 61 00 3d 80 c3 11 3e 97 22 e2 3d 4a c0 56 3e
       0.031342793 0.14234734 0.11041754 0.2097179
000220 8e 28 0e bd a5 01 19 be fb 81 9b be 74 84 ea bc
       -0.034706645 -0.14942034 -0.30372605 -0.028627612
000230 f7 98 ba bd b3 b2 63 be 82 e0 1d 3e ad d8 9a bd
       -0.09111207 -0.22236137 0.15417674 -0.07560859
000240 a7 95 52 3e 2f 7c 81 be f2 08 5a 3e 2d 98 a2 3e
       0.205649 -0.25290057 0.21292475 0.31756726
000250 8e dd ce 3d 79 96 40 be 06 dc b5 3e f7 51 e3 3d
       0.10100852 -0.18807401 0.35519427 0.11099618
000260 1e ab 99 3e 2a 7a 3c be e6 12 8a 3d 63 9f 23 3c
       0.30013365 -0.18405977 0.06741886 0.009986731
000270 fa 5c 81 be 5d da de bd db 7c 63 bd ab 60 f6 bd
       -0.25266248 -0.10881493 -0.055538993 -0.12030157
000280 12 a1 37 3d 5d 61 22 3d 92 08 20 3e 67 9f bc 3b
       0.044831343 0.039643634 0.1562827 0.005756307
000290 fe 15 0a bd c6 f6 07 be 87 cf 3d be 7e c9 b0 bd
       -0.03371238 -0.1327773 -0.18536197 -0.086321816
0002a0 18 e5 40 be 5c 7d 65 be 11 22 52 bd 7d 6c 85 bd
       -0.18837392 -0.22411102 -0.05130202 -0.06514833
0002b0 b3 02 bb bd 82 53 3a 3c ca 77 e8 3d f8 83 42 be
       -0.09131374 0.011372449 0.11350973 -0.18995655
0002c0 05 e1 85 3d 03 6a 8a 3c ca f7 23 bd ef 59 81 3d
       0.0653706 0.016896253 -0.040031232 0.063159816
0002d0 04 c8 33 bd 64 27 33 be b7 c3 a0 3d a5 61 80 3d
       -0.04389192 -0.17495495 0.0784983 0.06268624
0002e0 68 a7 81 bc b7 23 04 3e 31 db fd bd 1f e7 5b bd
       -0.015826896 0.12904249 -0.12395323 -0.05368721
0002f0 13 69 cc bd de ad 5f 3c f7 d2 2e 3c a8 a2 22 be
       -0.09980979 0.013652293 0.010670415 -0.15882361
000300 f3 c5 3a be 2e 51 33 be de 9a 5a be ee 6b 1b bd
       -0.18239574 -0.17511436 -0.2134814 -0.037944727
000310 9b 6e 78 3e 45 11 bf bd 02 9d 26 3d b9 94 01 3e
       0.24260943 -0.09329466 0.040677078 0.1265439
000320 9f 6c 30 3e df 5c e5 bc 57 61 82 bd 7a d9 e2 bd
       0.17228936 -0.027998386 -0.06366222 -0.110766366
000330 27 a1 9a bb 8c 5b 0a be c5 ed 10 be 49 19 c2 3d
       -0.004718918 -0.13511485 -0.14153202 0.09477479
000340 88 ab fd 3c d3 92 35 3d 72 8f 34 be 65 5d eb bd
       0.030965582 0.044329476 -0.17632845 -0.11492423
000350 44 d8 b6 3d b9 c6 41 3e f3 e6 74 bd 5f a5 33 3e
       0.08927968 0.18923463 -0.059790563 0.17543553
000360 6d fa 6c 3d 96 c6 1e be e4 06 bd bd b7 91 0e bd
       0.057856012 -0.15505442 -0.0922983 -0.034806933
000370 fd 6f 64 bd 35 fb 8f 3c 27 12 ba 3d fc 8d 1d 3e
       -0.055770863 0.01757584 0.090854935 0.15386194
000380 c6 70 ac bd db 05 1d be 24 71 81 be bc 66 79 be
       -0.08419947 -0.15334265 -0.25281632 -0.24355596
000390 65 24 f4 3c 29 13 29 3e d5 37 04 be bf da 15 3e
       0.02980251 0.16511215 -0.12911923 0.14634226
0003a0 b8 de 2b 3e f6 a7 4c 3e 56 0b 3f 3e 0a 53 69 3e
       0.16784179 0.19985947 0.18656668 0.22785583
0003b0 9f 76 58 3d bd 50 f4 bd 43 32 40 be 71 72 39 3e
       0.0528475 -0.11929462 -0.18769173 0.18110062
0003c0 7a 8c 50 be 56 7b 85 3e d3 6e d8 bd d9 cd 08 be
       -0.20366088 0.2607066 -0.10568013 -0.13359775
0003d0 08 15 f9 3c 4b 57 ec bd 42 b0 73 be a9 96 dc 3d
       0.030405536 -0.11540087 -0.23797706 0.10770924
0003e0 b4 a4 19 be 72 d2 c1 bd 63 5b 1b 3e b3 9d 5a 3d
       -0.15004236 -0.094639674 0.1517158 0.05337305
0003f0 66 c0 7c 3e 01 12 b1 3d 0c c2 4d 3e f8 55 c1 3d
       0.24682769 0.08646012 0.20093554 0.09440225

fc_mu.bias f4 [8]
000000 fa a1 0c be ed 6f 17 3e c1 d1 7c bd 16 0c d9 3d
       -0.13733664 0.1478879 -0.061723474 0.10598008
000010 23 3f 94 3d f9 21 25 3d d0 58 05 3e a2 6a 31 3e
       0.07238605 0.040315602 0.1302216 0.17325833

fc_logvar.weight f4 [8, 32]
000000 86 43 37 be 75 4e 5b 3e 57 2f 62 be ae c3 2f 3e
       -0.17896852 0.21416648 -0.22088371 0.1716449
000010 c7 19 a0 3e 6e 1f 35 be c3 f3 2e 3e 0a f8 2f be
       0.31269667 -0.1768777 0.17085175 -0.17184463
000020 03 6a a6 be 3f 6f 26 3e a7 d2 77 bd 80 18 05 be
       -0.32502756 0.16253375 -0.060503628 -0.12997627
000030 4b 72 6d bd 8e f4 96 3d 05 18 f4 bd 6a 80 73 be
       -0.057970326 0.07370864 -0.11918644 -0.23779455
000040 c1 f3 54 3e c5 28 bb 3d af 6b a5 be a1 3f 74 3d
       0.2079611 0.091386355 -0.3230872 0.059630994
000050 f4 c8 27 be f4 e4 9a 3e 8e eb 84 be 08 e4 99 be
       -0.16385251 0.30252802 -0.25960964 -0.30056787
000060 20 9f 8a be 07 96 66 3e d3 91 f0 bd 5a e4 8f be
       -0.27074528 0.22518168 -0.11746564 -0.28103906
000070 5d 99 98 bd f0 1f 4b be ee da 88 be 11 b6 ae be
       -0.07451127 -0.19836402 -0.2672953 -0.3412328
000080 70 ac c6 bd fd 1e ce 3e 70 32 6e be 5e dc 89 3e
       -0.097008586 0.40258017 -0.23261428 0.2692594
000090 0f 4b a0 3e 77 89 ab be 1f 95 ad 3e b8 eb 42 be
       0.31307265 -0.33503315 0.33902833 -0.19035232
0000a0 f1 68 15 be 7c 25 09 be 13 b3 3d be 05 22 23 be
       -0.14590813 -0.13393205 -0.18525343 -0.15930946
0000b0 3c 68 be be ad 19 94 3e 37 c8 b2 be 31 c6 15 be
       -0.371889 0.2892584 -0.34918377 -0.14626385
0000c0 78 63 b5 3d 0a 5f eb bd f1 c4 0c be df 32 14 3e
       0.08856863 -0.11492737 -0.13747002 0.14472531
0000d0 81 6b b1 be 3d 65 88 3e 28 b0 46 bd cc d0 a3 be
       -0.3465233 0.2663974 -0.04850784 -0.31995237
0000e0 6f 09 6a bd b1 16 f4 3d 31 da 19 be ec cf 92 be
       -0.057137903 0.119183905 -0.1502464 -0.28674257
0000f0 d0 52 56 bd 26 b2 43 be 6d 9e 3d bd 25 82 b3 be
       -0.05232507 -0.19110927 -0.046293665 -0.3506023
000100 ef 1e 97 be 76 01 0f 3d 9f d8 0a be 1d cd 05 3e
       -0.29515788 0.034913503 -0.13559197 0.13066526
000110 42 5e 50 3e 7b 02 ac bc bb cc 5a 3e e7 1b 7e bd
       0.20348457 -0.020997277 0.21367161 -0.06203833
000120 12 66 14 be 8e 0f 22 bc 36 20 53 3d 3c c6 bb bd
       -0.14492062 -0.009891404 0.05154439 -0.091686696
000130 29 10 19 be f9 e7 5f 3e 79 ab 0a bd 94 b0 d7 bd
       -0.14947571 0.21865834 -0.033854935 -0.105317265
000140 6b 53 83 3e 59 ef 36 be 88 a2 69 be 0a 47 4e 3e
       0.2564958 -0.17864741 -0.22815907 0.20144287
000150 46 d4 f6 bd 9b f4 2c 3e 56 93 d8 3d 39 24 95 bd
       -0.12052207 0.16890185 0.10574977 -0.072822995
000160 57 32 94 be 5c 2c 68 3e ea 23 13 3b 58 d5 4e be
       -0.28944656 0.22673172 0.0022451826 -0.20198572
000170 a0 f6 1c be a7 95 0a bd 5e b3 68 be 97 5d b3 bc
       -0.15328455 -0.033834126 -0.22724673 -0.021895213
000180 22 20 81 be 91 f6 b4 3e ee 5c 0e be de e1 b4 3d
       -0.25219828 0.35344365 -0.13902637 0.08832143
000190 29 15 09 3e 73 08 71 be 14 36 8e 3e 6d 78 0c be
       0.13386978 -0.2353838 0.27775633 -0.13717814
0001a0 62 a3 84 be fb 45 eb 3d fe b7 13 bd 84 3f 4d be
       -0.259059 0.11487957 -0.03606414 -0.2004376
0001b0 be 82 56 bd cf d4 61 3e b5 2c 23 be 8d 25 73 be
       -0.05237078 0.22053836 -0.15935023 -0.23744793
0001c0 b2 f9 49 3e 53 dc d1 bd 4c e6 b9 be 42 09 9d bd
       0.19724157 -0.10247102 -0.36308515 -0.076677814
0001d0 40 84 a2 be e7 ca 74 3e fc 41 2c bd 83 db 54 be
       -0.31741524 0.23905526 -0.042055115 -0.20786862
0001e0 8d 93 0a be 8f 7e 0c 3d 76 0e ad bd dd bc 51 be
       -0.13532849 0.034300383 -0.08450024 -0.20482202
0001f0 a2 6f db bd 9d 36 33 be 72 bd 37 be 19 ce 4d be
       -0.10714652 -0.17501302 -0.17943361 -0.20098151
000200 ff 02 fd 3a 2f 0a 05 3d 68 36 44 be b1 d7 88 3e
       0.0019303261 0.032480415 -0.1916138 0.2672706
000210 f3 2a 8b 3d 1f d6 af be 8c f6 5e 3e ba 59 4b bc
       0.06795301 -0.3434305 0.21773738 -0.012411529
000220 34 2b 9b be a0 4a 95 bd 23 bb 1b be b5 a6 19 be
       -0.303064 -0.07289624 -0.15208106 -0.15005
000230 e6 5c 9b be 25 32 b6 3e 58 dc 7f be 4e 12 15 be
       -0.30344313 0.35585132 -0.24986398 -0.14557764
000240 bd d0 da 3d 3b a6 d9 bb b9 8d 99 be 71 55 40 bc
       0.10684345 -0.0066421307 -0.29990938 -0.011739121
000250 e9 fa 69 be b7 22 a1 3d 0e 21 7e be a7 3c 1f bd
       -0.22849621 0.078679495 -0.24817297 -0.038876202
000260 bf 7c 91 bd 39 99 98 3e 59 59 f4 bc 71 72 45 be
       -0.071038716 0.298044 -0.02982776 -0.19281937
000270 06 12 9a 3b ee 07 45 be 1f 31 2b bd e2 41 8c be
       0.0047018556 -0.19241306 -0.041794892 -0.27394015
000280 94 c1 85 bd ce a7 8c 3e dd 2c 56 be 0a b0 54 bd
       -0.06531063 0.27471775 -0.20915551 -0.051925696
000290 41 85 e2 3d 43 d3 00 be 1b c0 5d 3e 53 5f 6c be
       0.110605724 -0.1258059 0.21655314 -0.23083238
0002a0 50 c5 bb bd be 9c 2d be 98 86 6e be dd 77 a0 bd
       -0.09168494 -0.16954324 -0.23293531 -0.07835362
0002b0 73 bd 24 be 7a e2 90 3d 49 12 91 be fd 91 05 be
       -0.16087894 0.07074447 -0.28334263 -0.13043971
0002c0 6e c0 0a 3e e4 77 eb bc 0e 87 3b be 66 23 18 3e
       0.13549969 -0.028743692 -0.18313238 0.14857253
0002d0 1b e4 28 be 3a 3e 82 3d 6b a7 9b be 89 56 62 bd
       -0.16493265 0.06359525 -0.30401167 -0.055258308
0002e0 13 eb 86 be d3 f4 55 3e 7e 4a 83 be 6e f0 03 be
       -0.26351222 0.20894174 -0.2564277 -0.12884685
0002f0 7b b1 53 3d 81 a6 7f be 32 7a 1f be c8 f8 bd bd
       0.05168293 -0.2496586 -0.15573958 -0.09275967
000300 e2 3d 8b bd 21 3c c5 3d c9 4d 38 3e 8c 1b 9b bc
       -0.067989126 0.09630609 0.17998423 -0.018934034
000310 f5 9a ff 3b 1b 16 53 bd a0 7e c6 3d 35 af 23 bd
       0.0078004547 -0.051534753 0.096921206 -0.039962012
000320 b3 1b ab 3d 6a 74 eb bd 93 f6 31 bd 99 31 76 be
       0.083548926 -0.114968136 -0.043448042 -0.24042358
000330 1b 3e 3e 3d 0a 2b c2 3d 7c 14 a4 3d f8 4d 39 3d
       0.046445947 0.09480865 0.080117196 0.045240372
000340 a6 0f d1 3c 9d a2 96 bd 43 4c 68 be 1a 56 7a 3d
       0.025520157 -0.07355235 -0.22685342 0.06111727
000350 cf 94 75 be 46 72 95 bd 53 ec 33 3d 52 7e 62 be
       -0.23982547 -0.072971866 0.04392655 -0.221185
000360 9f 8a 3f 3e 0e 0c 06 bd f5 68 04 3d 56 d2 f1 3c
       0.18705224 -0.03272634 0.032326657 0.029519241
000370 d1 91 e8 bd d8 88 cc bd f4 6b 11 be 00 e0 4d be
       -0.11355937 -0.099870384 -0.14201337 -0.2010498
000380 bb 93 f1 bd f2 96 43 3e e1 a7 42 be 63 7f 0a 3c
       -0.117957555 0.1910055 -0.19009353 0.008453223
000390 bf 49 d0 3d 25 18 ff bd 9d 94 01 3e d6 40 56 be
       0.10170316 -0.12455777 0.12654348 -0.2092317
0003a0 d8 be bc be 7f f3 8e 3d 57 9b d7 3d 3c aa 4b be
       -0.36864352 0.06980037 0.105276756 -0.19889158
0003b0 53 99 74 be 7b 67 7d 3e 2e eb 7c be 65 2e 3b be
       -0.23886614 0.24746506 -0.24699089 -0.18279417
0003c0 f4 51 3b 39 24 6b 3a be 4f 8e e3 bd c7 c5 07 be
       0.0001786424 -0.18204933 -0.111111276 -0.1325904
0003d0 63 e7 1a be ee 40 28 3e 35 3d 55 be 5f 3d 8a be
       -0.1512733 0.16431019 -0.2082413 -0.26999947
0003e0 3e a7 67 be 77 b8 2b 3e 3e 6c a7 be 59 52 4b be
       -0.22622392 0.16769587 -0.3269977 -0.19855632
0003f0 75 2f 45 3d 14 f7 ec bd 26 d3 0d be 37 84 90 be
       0.04814096 -0.11570564 -0.13850078 -0.28225872

fc_logvar.bias f4 [8]
000000 f2 36 ba bd 2f 9c 8f be 22 4e 03 be 04 5a 9e 3c
       -0.09092511 -0.28048846 -0.12822774 0.019330032
000010 94 65 ad be 43 df ee 3b 76 26 a0 bd a9 fb 85 bd
       -0.3386656 0.0072897985 -0.07819836 -0.06542141

decoder_net.0.weight f4 [32, 8]
000000 54 75 b0 3e 0a 41 34 be c8 16 23 3d 51 59 63 3e
       0.34464514 -0.17602935 0.039816648 0.2220204
000010 35 fc 6a be 83 6f 1c bd ea 82 4e be e8 b3 4d be
       -0.22947772 -0.038192283 -0.20167127 -0.2008816
000020 8a 6b a1 be 61 82 04 3e 90 b6 d4 3d aa e8 bc 3e
       -0.31527358 0.1294036 0.103863835 0.3689626
000030 c6 72 68 3e df 58 5c be fc 81 ff bd 46 72 e2 3d
       0.22700033 -0.21518277 -0.124759644 0.11056952
000040 e8 ad 88 be ec df 11 be b1 16 4b be d0 61 a2 3e
       -0.2669518 -0.14245576 -0.19832875 0.3171525
000050 82 5b 99 be 6c 2a 61 3e 79 e1 e6 bd 7d 09 e7 bd
       -0.29952627 0.21988839 -0.11273474 -0.112811066
000060 0a 64 8d 3e 02 9d 8c 3e 28 67 37 3e 17 f1 5c 3e
       0.27615386 0.27463537 0.17910445 0.21576343
000070 cf 23 cc 3e 9f 7a 03 3e a1 38 21 bc 71 d2 af 3d
       0.3987107 0.12839745 -0.009840162 0.085850604
000080 65 b5 9b 3e e6 22 22 3e de 0c 0e 3e e9 a7 89 3e
       0.3041183 0.15833625 0.13872096 0.26885918
000090 49 22 06 be e9 60 2c 3d 3e 9c 79 3d 46 dc f5 3c
       -0.13099016 0.04208461 0.06094002 0.030012261
0000a0 0c ff c0 be 80 56 45 3e 7a 24 cc bd 85 b1 62 be
       -0.37694585 0.19271278 -0.09967895 -0.22138031
0000b0 e0 b5 0d 3e 05 4f e0 bd 8d 13 9a bd 8a fa f7 bd
       0.13838911 -0.10952572 -0.0752326 -0.121083334
0000c0 b8 7f 8b 3e da 6f e8 3e c8 ea 74 3e 95 f5 3e be
       0.2724588 0.45397836 0.23917687 -0.1864837
0000d0 f0 65 86 be 78 ca 92 3e 80 16 a3 be 36 1f 00 be
       -0.26249647 0.28670096 -0.31853104 -0.12511906
0000e0 71 5c a2 3d b7 1b 27 be e3 a0 b0 be f3 e8 b0 3d
       0.07927788 -0.16319166 -0.34497747 0.086381815
0000f0 dc bf 67 3e fe af ac 3e 81 85 e7 3d fd 53 af 3e
       0.22631782 0.3372802 0.11304761 0.34243765
000100 8d d0 57 be 56 56 90 be 0e d3 2e 3d 42 af bf bd
       -0.2107565 -0.2819087 0.042681746 -0.093596
000110 91 8c 4a bd a4 ea 2a be 8a 3b f5 bd 69 e7 ba be
       -0.04945046 -0.16691071 -0.11974247 -0.36504677
000120 98 50 50 bd 62 e0 1d be 0d f2 37 be a4 b7 00 3e
       -0.05085811 -0.15417627 -0.17963429 0.12570053
000130 88 66 80 3d 2c 21 09 bd 11 28 60 be da f5 81 be
       0.06269556 -0.0334789 -0.21890284 -0.25382882
000140 79 76 7f be 25 3b 94 be 47 e4 9d be cd b7 8c bd
       -0.24947537 -0.28951374 -0.30838224 -0.06870995
000150 5b 85 e7 be ce 16 e2 bd 0a 5e 75 3e 4f 44 02 3c
       -0.4521893 -0.11039506 0.23961654 0.007950856
000160 2b bd f3 3d b7 7f a8 be 96 a7 c0 be 2a 8c aa 3c
       0.11901315 -0.3290994 -0.37627858 0.020818789
000170 6c 92 8b 3e a6 6b a1 3e 26 17 97 bd 50 00 a9 be
       0.2726015 0.31527442 -0.07377462 -0.3300805
000180 88 28 34 be 10 3d 29 be 39 6c 8b be ef d5 24 3e
       -0.17593586 -0.165272 -0.27231005 0.16097234
000190 94 cd c7 3d 2d c0 50 3c 82 17 16 bd 85 e9 dd 3d
       0.09756008 0.012741131 -0.036643513 0.10835556
0001a0 44 3c 76 3d ec 96 1a 3d 81 5f c6 bd 68 db d3 3d
       0.060116068 0.037741587 -0.09686185 0.10344583
0001b0 66 0b 54 3e c5 2c 63 be cf 56 90 be 22 b1 94 3e
       0.20707473 -0.22185047 -0.2819123 0.29041392
0001c0 20 2c 66 3e 74 42 6e 3e 7c 9f 75 be 79 51 0f 3e
       0.2247777 0.23267537 -0.2398662 0.13995923
0001d0 bf 57 ae bd bb 88 3a be 39 b8 8e 3d c0 f6 6b 3c
       -0.0851283 -0.18216221 0.069687314 0.0144020915
0001e0 c9 7c 25 be 64 06 2a be 71 d0 2e bd 9c c7 a8 3e
       -0.16160883 -0.16604 -0.042679254 0.3296479
0001f0 24 69 bf 3e 01 b2 be 3c 7e 7e 2c 3e 64 ee 87 bb
       0.37384903 0.023278238 0.16845128 -0.0041482914
000200 5d 2a 2e be 37 c8 2b be 69 e8 83 be f5 19 7e be
       -0.17008348 -0.16775595 -0.25763252 -0.2481459
000210 8b 16 f3 3d dd 1b 4e be 3e b6 8c be 72 58 3c 3e
       0.11869534 -0.20127816 -0.2748279 0.18393114
000220 69 08 a8 3e f2 37 b1 3e a1 b0 e8 3b 5e a1 5b bd
       0.32818916 0.34612995 0.007101134 -0.05362069
000230 6f 5a c8 3e bf 6b 9a 3c ad 70 5f 3e 61 ef 38 3e
       0.39131495 0.018850205 0.21820326 0.18060066
000240 69 e3 9c bc 18 dd a5 3d 31 51 5c 3e 40 98 74 be
       -0.019151406 0.08098811 0.21515347 -0.23886204
000250 94 d0 b5 be 70 fa a5 be fe 3c 86 3e f8 80 9d 3e
       -0.35510695 -0.3241763 0.26218408 0.30762458
000260 d4 8b a1 3e 8f d1 d7 3e 1e a4 9b 3e be 89 18 3e
       0.31551993 0.42152068 0.3039865 0.14896294
000270 54 2c e7 3c a9 30 74 bd 99 9f 5f 3e 5e f2 83 3e
       0.02821938 -0.05961672 0.21838225 0.2577085
000280 bc a2 44 be df a9 89 be 46 02 0c be c5 7a 66 be
       -0.19202703 -0.26887414 -0.13672742 -0.2250777
000290 a3 aa 66 bc 36 77 95 3e 91 4d 3a 3e 25 35 4a be
       -0.014078769 0.29192513 0.18193652 -0.19746836
0002a0 9e e8 8c bc 57 73 01 3d 81 62 c1 3d 0b 42 97 be
       -0.017200764 0.031604137 0.09442616 -0.29542574
0002b0 93 e8 bc 3d dc b5 3e 3e e7 ea e7 3d ac 59 3e bd
       0.092240475 0.18624061 0.11324101 -0.046472237
0002c0 4e eb a2 3d 14 f3 88 be a0 d6 98 3e a3 d4 a6 bd
       0.07955037 -0.26747954 0.29851246 -0.08146026
0002d0 8c ed ca 3c 28 17 69 be 3a 60 1d be 15 05 48 3e
       0.024771474 -0.2276274 -0.15368739 0.19533189
0002e0 79 52 d6 3d 4e 71 4c be dc 97 d6 bc f6 ca 58 3e
       0.10464949 -0.19965097 -0.026195459 0.21171173
0002f0 93 2f e0 be 00 a3 2e 3e a1 c2 97 3c 37 1a 2a 3e
       -0.43786296 0.17054367 0.018525423 0.16611563
000300 5f 74 a6 bc bd 3f 68 3d 42 3c 60 be 6f 3b ef 3d
       -0.020319162 0.05670141 -0.21897987 0.11681258
000310 f1 d2 45 3d 62 43 48 bc 56 5a 64 bb ba 5e bb 3e
       0.048296873 -0.012223097 -0.0034843883 0.36595708
000320 2b b7 f2 3d 9b 5c 68 be 6a b7 67 be 01 b3 51 3d
       0.11851343 -0.22691576 -0.2262856 0.051196102
000330 06 ac 66 be a7 f8 21 bd a5 3f a0 be a6 23 91 3e
       -0.22526559 -0.039543774 -0.31298557 0.2834751
000340 07 cb 14 3c 6c fe 68 3d 27 a0 8a 3d 9d ef c5 bc
       0.009081609 0.05688326 0.06768828 -0.024162108
000350 ea 93 58 be 0b 84 01 3e b5 49 86 3e a9 15 26 3e
       -0.21150175 0.12648027 0.2622811 0.162192
000360 c6 ec b6 3e e9 eb 86 bd a3 71 48 be b8 f8 5f 3d
       0.3572752 -0.06587965 -0.19574599 0.054680556
000370 99 df 55 3e 66 7d 81 3e 97 e7 54 3e 01 64 58 be
       0.20886077 0.25290984 0.2079147 -0.21131898
000380 55 55 88 3e 67 43 d6 3e f0 6a 99 be 5a d6 76 be
       0.26627603 0.418483 -0.299644 -0.24105206
000390 16 a8 6c 3e c2 f6 0d be e8 5d 9f 3d f6 a2 8a be
       0.23110995 -0.13863662 0.07781583 -0.27077454
0003a0 6a fc a9 3e 1a e6 a8 be c8 e6 31 3e 49 30 3c 3e
       0.3320039 -0.32988054 0.17373192 0.18377794
0003b0 38 bf 01 be 30 44 ba bd c9 f7 6b be ce a1 5a be
       -0.126706 -0.09095037 -0.23043741 -0.21350786
0003c0 3d a0 99 3c 8d e7 87 3e 04 1b 56 bd ff ab 18 3d
       0.018753165 0.26543847 -0.052271858 0.037273403
0003d0 3c 11 43 bd ee 2a d8 bd 13 07 9a be fa 4a 96 be
       -0.047623858 -0.10555063 -0.30083522 -0.29354078
0003e0 b3 72 cd be d8 41 8c bd 50 35 d4 3d 51 66 f2 3c
       -0.4012657 -0.06848496 0.10361731 0.029589804
0003f0 71 3e b8 3d f8 02 f3 bd 0a 08 35 be 35 42 67 3e
       0.08996285 -0.118658006 -0.17678848 0.2258385

decoder_net.0.bias f4 [32]
000000 29 7f 94 be 04 2b 00 be 67 b8 f8 bd 71 bc 4e 3d
       -0.29003266 -0.12516409 -0.12144547 0.05047268
000010 69 12 4d bd 49 83 6b 3e 56 78 99 3e d8 ab 6e 3e
       -0.050066385 0.229993 0.29974622 0.2330774
000020 87 ba 90 be 19 42 87 be 29 72 74 3e 16 a8 ad 3e
       -0.2826731 -0.26417616 0.23871674 0.33917302
000030 02 34 c6 bd 1c 99 4d bd db 4e 94 bd e5 b8 26 bd
       -0.096778885 -0.050194845 -0.07241603 -0.040703673
000040 60 84 f6 bd d2 81 b0 be 33 8e 87 bd c5 28 a6 be
       -0.12036967 -0.34474045 -0.06618919 -0.3245298
000050 50 1c 11 be a4 2b 40 3e a6 d2 53 bd b1 81 01 3e
       -0.14170957 0.18766648 -0.051714562 0.1264713
000060 1b 1a a6 3d 7e 69 bf bd c8 13 a2 bd 62 40 b6 be
       0.08110448 -0.09346293 -0.07913929 -0.35595995
000070 48 a5 cc 3d 0f e1 0b 3e 0c 03 a3 be 05 93 8c 3e
       0.099924624 0.13660072 -0.31838262 0.27455917
